LB5/notebook/model_state_16_to_16.pth (torch, 579740 bytes, 8 tensors)

conv1.weight f4 [16, 1, 3, 3]
0.33341876 0.0890505 0.31936294 0.39372596 -0.050438378 0.33071545 0.03907799 0.27233553
-0.08600336 0.033984657 0.35741487 0.39113718 0.15703157 0.005885377 0.25844082 0.031608835
-0.12155446 0.33634216 -0.36921227 -0.13262199 0.26969472 0.025188535 0.03156677 0.18106963
-0.3811534 0.35240096 0.0042034793 0.14132361 -0.067788176 0.29452485 0.362737 0.1554747
-0.1351222 -0.2389493 -0.255691 -0.19938302 0.116319194 0.27840844 0.047699064 0.07475255
0.3522582 0.25766355 0.28708997 -0.20001782 0.33908573 -0.34656426 -0.27585813 0.36902058
0.035103343 -0.20350741 0.21964245 -0.025315352 -0.28107527 0.17308271 -0.21460345 -0.2900157
-0.080483414 0.3268595 -0.123828754 0.31749168 -0.30129623 -0.17127077 0.1002085 -0.029859727
0.18374088 0.3553455 -0.17282286 0.19237104 0.20958784 -0.03923747 0.18482094 0.3500123
0.10300267 0.20913665 0.22160871 0.16670644 0.40629202 0.07918912 0.047824595 0.03927608
0.19813283 0.18128544 0.24105263 0.3697908 0.026719434 0.32504746 0.33526108 0.40559173
0.2893386 -0.16693166 0.12976515 -0.020708919 -0.093212724 -0.022210956 -0.14273107 -0.12517512
-0.014119267 0.06583765 0.05846849 0.36488235 -0.088738196 0.27902257 -0.112005614 0.043155342
0.14983444 -0.15450218 0.30010495 0.055104595 -0.1631366 0.13191342 -0.18252635 -0.04514146
-0.034838706 -0.09985113 -0.25881648 0.03263712 -0.115826055 0.21675095 0.37268636 0.34294584
0.10079405 -0.11095028 0.032318156 0.25531572 -0.16385892 0.40365782 -0.35248056 0.26613018
0.026629409 -0.16653849 -0.06806775 0.3281513 -0.31295812 0.35375917 0.24387702 0.25926578
-0.017137669 -0.2419707 0.3794217 -0.36592788 -0.21529554 0.22100855 -0.042166788 -0.19360957
00000000: ddb5 aa3e 1c60 b63d 8a83 a33e 7396 c93e
00000010: 7998 4ebd 8953 a93e 3e10 203d 906f 8b3e
00000020: 8822 b0bd 7f33 0b3d 15ff b63e 2243 c83e
00000030: e2cc 203e 1fda c03b 5b52 843e 4478 013d
00000040: 8bf1 f8bd 0a35 ac3e 6409 bdbe 0fce 07be
00000050: 6d15 8a3e 3058 ce3c 284c 013d 516a 393e
00000060: 8a26 c3be e66d b43e 57bd 893b 23b7 103e
00000070: 87d4 8abd f6cb 963e aab8 b93e c234 1f3e
00000080: 795d 0abe 20af 74be eee9 82be 102b 4cbe
00000090: c238 ee3d 8d8b 8e3e 1860 433d dd17 993d
000000a0: 305b b43e 7aec 833e 75fd 923e 79d1 4cbe
000000b0: a59c ad3e df70 b1be 473d 8dbe 44f0 bc3e
000000c0: 86c8 0f3d 3f64 50be f3e9 603e 2462 cfbc
000000d0: 19e9 8fbe 983c 313e 02c1 5bbe f07c 94be
000000e0: 7dd4 a4bd 215a a73e ee99 fdbd 458e a23e
000000f0: 8043 9abe 9b61 2fbe 1d3a cd3d 639c f4bc
00000100: 9226 3c3e d8ef b53e 7af8 30be eafc 443e
00000110: 329e 563e 78b7 20bd b341 3d3e d034 b33e
00000120: 10f3 d23d eb27 563e 65ed 623e 18b5 2a3e
00000130: 8205 d03e e82d a23d b9e3 433d f4df 203d
00000140: 55e3 4a3e e4a2 393e 80d6 763e 3855 bd3e
00000150: b7e2 da3c 9f6c a63e 57a7 ab3e b8a9 cf3e
00000160: 3024 943e 22f0 2abe 28e1 043e c0a5 a9bc
00000170: 50e6 bebd c0f3 b5bc 1828 12be e82d 00be
00000180: 8054 67bc e4d5 863d a87c 6f3d dcd1 ba3e
00000190: 5fbc b5bd 0cdc 8e3e 3363 e5bd a8c3 303d
000001a0: 336e 193e d235 1ebe 5ba7 993e 5bb5 613d
000001b0: 480d 27be 5014 073e 30e8 3abe 40e6 38bd
000001c0: 08b3 0ebd c07e ccbd 9883 84be 80ae 053d
000001d0: 3636 edbd f6f3 5d3e bfd0 be3e 9996 af3e
000001e0: 1c6d ce3d e739 e3bd 0b60 043d beb8 823e
000001f0: a2ca 27be 3dac ce3e 5578 b4be 3742 883e
00000200: eb25 da3c 1189 2abe 1b67 8bbd 7203 a83e
00000210: 0c3c a0be ec1f b53e e6ba 793e 7cbe 843e
00000220: 4c64 8cbc 2bc7 77be 9043 c23e e65a bbbe
00000230: 6f76 5cbe 1150 623e 15b7 2cbd 9641 46be

conv1.bias f4 [16]
0.2942905 0.33163458 -0.052689213 -0.057136286 0.005435469 0.31543052 0.3935939 0.007995635
0.3608965 0.11262039 -0.25798306 0.3418332 -0.17633979 0.23340102 -0.19492047 0.21641438
00000000: 3fad 963e 02cc a93e a5d0 57bd bd07 6abd
00000010: 051c b23b 1c80 a13e 2485 c93e 2000 033c
00000020: 6dc7 b83e 85a5 e63d 5b16 84be c304 af3e
00000030: 6b92 34be ad00 6f3e 3b99 47be bb9b 5d3e

conv2.weight f4 [32, 16, 3, 3]
0.075506054 0.055071715 0.012804971 0.03497528 -0.11057333 -0.13935569 0.04084767 0.10096408
0.1261348 -0.034168568 -0.067741975 0.059874393 0.049183547 -0.11133004 -0.11173839 0.12408436
-0.0485884 0.13391967 -0.03874664 -0.15327421 0.028271643 -0.120739155 -0.09590123 0.07010506
-0.013084215 -0.0548675 0.09448703 -0.0167042 0.008293577 0.12965052 0.08188539 -0.026601575
-0.030468037 0.07693497 0.09231028 0.009505011 0.09755963 -0.10597072 -0.12325854 0.018314444
-0.007346254 -0.11257519 0.079990774 -0.055312805 0.10315738 -0.055149324 -0.033389397 0.09431301
-0.025925066 -0.012700711 0.046304677 0.00026021796 -0.019620623 0.082783036 0.071077384 0.021971513
0.0034912757 0.08214887 0.14571649 0.047704764 -0.032975975 0.09216877 0.06513618 -0.023265444
0.010791635 -0.067474306 0.014828965 -0.14665338 -0.08724136 -0.025854811 -0.099001646 0.07869684
-0.027935555 0.03732187 -0.007816618 -0.042239998 -0.011699296 -0.06915733 0.101167716 0.071305625
0.11160768 0.06927125 0.007769753 -0.106533356 -0.01755672 0.04045781 -0.14994362 0.059524722
-0.045911614 0.04176645 -0.019968204 -0.0658636 0.048125617 -0.048781835 -0.064443186 -0.048929565
-0.009272195 -0.06862591 -0.047398202 0.08044436 -0.05003824 0.007930051 0.0030386203 -0.11621721
-0.018711107 -0.00887478 0.10493044 0.058533993 0.07287439 -0.08110099 -0.041518044 0.0024677813
0.042664967 -0.029015314 0.07574657 0.047560103 -0.0063098967 0.09377481 0.02709139 0.035739508
-0.0071412213 -0.036815733 -0.0698573 0.111277625 0.058363765 0.13250008 -0.12429923 -0.047393955
-0.12506677 -0.07371873 0.0085247895 -0.058242556 0.045642696 -0.030154172 0.14624867 0.025541862
-0.008746307 0.08975328 -0.006503809 -0.008085985 0.049757082 0.1286407 0.10464974 0.09690119
0.011463703 0.078168556 0.0880175 -0.04224494 0.0893056 0.092040874 0.02960151 -0.00453837
0.00389004 0.08204287 -0.024995245 0.08868173 0.105040394 0.114976116 0.06261692 0.040107593
0.04927773 0.05237261 -0.04538079 -0.10595215 -0.06529831 0.09212057 -0.10983445 -0.028625747
0.032344006 -0.09957558 -0.090609565 -0.07303339 -0.05094603 -0.07222872 -0.10303671 -0.034291286
-0.06974029 -0.000844776 0.1418403 0.011861922 0.07229576 0.053321254 -0.0015846848 0.020412508
0.11954518 0.12152723 0.014791516 0.123288944 0.13402635 -0.030721884 -0.11890569 0.026051184
0.10950824 -0.105241574 -0.050914854 0.09916343 -0.08600575 -0.13527812 0.02156904 -0.03534283
0.03170741 0.065199815 -0.0150971385 -0.10715516 0.10280562 -0.09577376 -0.1316485 0.12843041
-0.02409888 0.018197736 0.035583936 0.017826024 0.0010827137 0.13540149 0.11120285 -0.020679453
0.03607526 0.07146438 -0.012808129 0.08467998 0.084452234 0.11648289 0.1066027 0.10696593
0.08560461 0.011128036 0.031476837 0.067227766 0.063343495 -0.020168358 0.053116158 0.022040192
0.040424563 0.08182723 -0.009865634 0.01221966 -0.059550278 -0.029825848 -0.08034691 -0.04091574
0.082331575 -0.05771181 -0.044319294 0.010552538 0.09044122 0.10261771 -0.0288053 0.017402472
0.01693397 -0.032987088 -0.045034055 0.11761912 -0.011344932 -0.07271671 0.059091024 -0.043346696
00000000: eba2 9a3d e192 613d f1cb 513c 3d42 0f3d
00000010: 4574 e2bd 42b3 0ebe e34f 273d 41c6 ce3d
00000020: 7b29 013e 57f4 0bbd 4ebc 8abd da3e 753d
00000030: b074 493d 0101 e4bd 19d7 e4bd f11f fe3d
00000040: a104 47bd 3d22 093e ccb4 1ebd eaf3 1cbe
00000050: ef99 e73c 1746 f7bd dd67 c4bd 3e93 8f3d
00000060: 2d5f 56bc bebc 60bd 6a82 c13d 3fd7 88bc
00000070: c8e1 073c 1bc3 043e 87b3 a73d 8ceb d9bc
00000080: 1b98 f9bc 1590 9d3d 2c0d bd3d e8ba 1b3c
00000090: 58cd c73d 2d07 d9bd f96e fcbd 2c08 963c
000000a0: d8b8 f0bb d28d e6bd 34d2 a33d ae8f 62bd
000000b0: 2d44 d33d 42e4 61bd 52c3 08bd 2e27 c13d
000000c0: ce60 d4bc a516 50bc f9a9 3d3d dd6d 8839
000000d0: 6ebb a0bc 278a a93d 0591 913d 9afd b33c
000000e0: e3cd 643b ab3d a83d b436 153e 1266 433d
000000f0: d111 07bd fbc2 bc3d 1e66 853d 2c97 bebc
00000100: 66cf 303c f82f 8abd 30f5 723c 4e2c 16be
00000110: 99ab b2bd 78cd d3bc 60c1 cabd cf2b a13d
00000120: 1bd9 e4bc d1de 183d 4611 00bc d903 2dbd
00000130: 67ae 3fbc 5ca2 8dbd 0531 cf3d af08 923d
00000140: 9192 e43d 16de 8d3d 6a99 fe3b 292e dabd
00000150: 1cd3 8fbc 17b7 253d d28a 19be 32d0 733d
00000160: d10d 3cbd 4c13 2b3d 5c94 a3bc 7fe3 86bd
00000170: 5e1f 453d 76cf 47bd cafa 83bd 5e6a 48bd
00000180: 68ea 17bc be8b 8cbd 9e24 42bd 03c0 a43d
00000190: e6f4 4cbd 0bed 013c 9723 473b 4a03 eebd
000001a0: 0948 99bc 8667 11bc c5e5 d63d 57c1 6f3d
000001b0: 2b3f 953d 4718 a6bd d30e 2abd 80ba 213b
000001c0: 76c1 2e3d 86b1 edbc 0521 9b3d 62ce 423d
000001d0: 40c3 cebb 020d c03d c3ee dd3c 9763 123d
000001e0: e800 eabb 18cc 16bd 5811 8fbd 86e5 e33d
000001f0: d80e 6f3d 1aae 073e 9890 febd 2a20 42bd
00000200: 8111 00be d8f9 96bd 8fab 0b3c bf8f 6ebd
00000210: d6f3 3a3d e205 f7bc 36c2 153e 2b3d d13c
00000220: ac4c 0fbc 91d0 b73d e71d d5bb 147b 04bc
00000230: 15ce 4b3d 63ba 033e 9a52 d63d 2274 c63d
00000240: 41d2 3b3c d616 a03d 8542 b43d 0809 2dbd
00000250: dbe5 b63d ed7f bc3d de7e f23c 9bb6 94bb
00000260: 0bf0 7e3b 1806 a83d d4c2 ccbc c49e b53d
00000270: 6b1f d73d 9978 eb3d 4d3d 803d dc47 243d
00000280: 72d7 493d a984 563d 35e1 39bd 71fd d8bd
00000290: 1fbb 85bd b6a9 bc3d e2f0 e0bd 8b80 eabc
000002a0: 267b 043d 48ee cbbd 8291 b9bd 8892 95bd
000002b0: c9ac 50bd a7ec 93bd e904 d3bd 0575 0cbd
000002c0: ffd3 8ebd f573 5dba 953e 113e 8258 423c
000002d0: cd0f 943d 6367 5a3d 33b5 cfba 2238 a73c
000002e0: 1ad4 f43d 45e3 f83d 1d58 723c ea7e fc3d
000002f0: 343e 093e 76ac fbbc d484 f3bd 4b69 d53c
00000300: db45 e03d e588 d7bd 188c 50bd 3216 cb3d
00000310: c823 b0bd 5986 0abe 8eb1 b03c a5c3 10bd
00000320: a1df 013d 7b87 853d fd59 77bc 2a74 dbbd
00000330: c18b d23d 0825 c4bd ddce 06be 4383 033e
00000340: 046b c5bc 6b13 953c 76c0 113d e207 923c
00000350: d8e9 8d3a b0a6 0a3e 52be e33d f567 a9bc
00000360: a7c3 133d eb5b 923d 30d9 51bc b36c ad3d
00000370: 4bf5 ac3d 958e ee3d 8452 da3d f410 db3d
00000380: 7851 af3d 5e52 363c dbed 003d b6ae 893d
00000390: 3cba 813d 1d38 a5bc 5490 593d a28d b43c
000003a0: 3a94 253d 0995 a73d 78a3 21bc f834 483c
000003b0: feea 73bd 5655 f4bc ec8c a4bd 4397 27bd
000003c0: 759d a83d 3863 6cbd 2688 35bd 8de4 2c3c
000003d0: 3f39 b93d 3c29 d23d 18f9 ebbc a18f 8e3c
000003e0: 1cb9 8a3c 781d 07bd a175 38bd 4be2 f03d
000003f0: 18e0 39bc 80ec 94bd 6e09 723d 4e8c 31bd

conv2.bias f4 [32]
0.13292101 -0.073013335 -0.015575915 0.008947569 0.06413235 0.10958165 0.0863097 0.074676156
0.04737445 0.023488779 -0.06780649 -0.022785913 -0.027272616 0.0709332 0.005271805 0.06599534
0.039270263 -0.02734123 0.11154843 0.040589012 -0.035687868 0.063164465 -0.020062922 0.022044357
0.05753043 -0.010375027 -0.07004464 0.08073316 0.06333582 0.07272681 0.050872408 -0.036582123
00000000: 721c 083e 0488 95bd 1f32 7fbc d398 123c
00000010: d257 833d 586c e03d 24c3 b03d d0ef 983d
00000020: b60b 423d 8a6b c03c 21de 8abd 86a9 babc
00000030: d26a dfbc 6d45 913d 1bbf ac3b 9128 873d
00000040: dbd9 203d b7fa dfbc 8173 e43d aa40 263d
00000050: 712d 12bd 5f5c 813d ff5a a4bc 5e96 b43c
00000060: 07a5 6b3d 04fc 29bc 9073 8fbd 6d57 a53d
00000070: 36b6 813d cbf1 943d 965f 503d 23d7 15bd

fc1.weight f4 [256, 512]
-0.028579768 -0.030325152 0.024134476 0.049334515 0.028196488 -0.005525031 0.017576287 0.034969013
0.025326744 0.012781367 -0.046368696 -0.021497013 0.036620595 0.016473014 -0.013384442 -0.0011150641
-0.024888769 -0.024642967 0.018934274 -0.005474762 0.0081539275 0.012381238 -0.0024396454 -0.002555611
0.00557528 -0.044784956 0.015090601 -0.02040801 0.01206275 0.03179463 0.012354855 -0.030711565
-0.020062089 -0.044040184 0.009548668 -0.008066092 0.025208134 0.0046770237 -0.013796054 0.038601663
-0.023932323 -0.00028401613 0.04305843 0.009640418 0.014443189 -0.0123996325 -0.041495785 -0.008097064
0.020089587 0.03172633 0.026114348 -0.018117432 -0.0088112885 -0.019223422 0.010373521 -0.02505155
-0.047622826 -0.047368553 0.0081213275 -0.022065764 0.026585968 -0.049358815 0.012339917 -0.045898225
-0.0006299929 0.0144480765 0.0028131122 -0.02405801 -0.051072657 0.017017523 -0.005191566 0.018045658
-0.052409135 -0.049483076 0.027812531 0.023511998 -0.007840711 -0.02612617 0.017510917 0.00010628926
0.0250108 0.027656265 0.02499121 -0.0048150797 -0.04299429 0.0014777917 0.019474681 0.022096502
0.0073646023 -0.045451347 0.019172965 0.028546806 0.020672828 0.032811396 0.0046000625 -0.02580529
0.030078152 -0.027663903 0.027433638 -0.046434697 0.028791202 -0.0006163227 -0.01528018 0.031264283
0.009144379 -0.004027488 -8.157036e-06 -0.041489463 0.012261064 0.0005309619 0.015331479 -0.005367682
-0.037402984 -0.014694164 0.039957717 -0.043801483 0.018465683 0.030114155 0.004070827 -0.038853608
-0.01866619 -0.008814035 0.001454932 -0.04671974 -0.0032331345 0.006439459 0.025750883 -0.030539287
-0.0019982646 0.019413792 0.031203387 -0.036306452 -0.014902801 -0.038890883 0.027838945 0.0419637
-0.018568834 -0.05122701 0.012595357 0.010848578 0.034969326 -0.046370354 -0.03452191 0.029786078
0.004088613 0.035160497 0.017695464 0.00080927985 0.006351693 -0.023329126 0.02283363 -0.021534074
0.021761214 0.024963176 0.019916497 -0.042322733 0.016351981 0.011977397 -0.0020075247 0.026340902
0.029656826 -0.036777027 -0.006666109 -0.032083027 0.03571498 -0.04737566 -0.03721181 -0.033531737
-0.025221193 -0.010800385 -0.005748945 0.021452736 -0.01823953 -0.04635686 -0.03643153 -0.031788453
-0.015724596 0.029438918 -0.0065372493 -0.044926826 0.04277399 0.0050065992 -0.03593372 -0.04536654
0.030167129 -0.041299045 -0.012497671 -0.0112030925 -0.04947818 -0.016012402 -0.03982512 -0.019266225
-0.021480232 0.024156312 -0.0316898 -0.010091156 -0.0346747 0.0011469179 0.014066439 -0.033574615
0.016146587 -0.010957039 -0.015075663 0.0051565017 0.0027064 -0.031510036 -0.048938464 -0.034866508
3.877732e-05 -0.018287823 0.02053682 -0.004408657 -0.02814902 0.02090233 0.039936762 -0.0168151
-0.0022071942 -0.017487984 0.015746249 -0.00228998 -0.020786135 -0.05310169 -0.0038843234 -0.015332141
-0.024659885 -0.040492505 -0.045147523 -0.0072100507 -0.0037606123 0.029460272 -0.038027085 0.023805022
0.028468676 0.0069107534 0.0045354515 -0.005050255 0.037860274 -0.0011578818 0.038914233 0.023300081
0.020465227 -0.019815523 -0.0076726996 0.004192858 0.038798887 0.030012008 -0.040683735 0.032783423
-0.03940913 0.03333895 -0.014157014 0.038158316 -0.039578654 -0.014262715 3.044656e-06 0.021038705
00000000: 1e20 eabc 746c f8bc aab5 c53c fd12 4a3d
00000010: 52fc e63c 520b b5bb 25fc 8f3c ab3b 0f3d
00000020: 087a cf3c f068 513c 1aed 3dbd 811a b0bc
00000030: 7aff 153d 6af2 863c 6b4a 5bbc 5827 92ba
00000040: 88e3 cbbc 0ce0 c9bc 0d1c 9b3c a265 b3bb
00000050: 0d98 053c adda 4a3c 75e2 1fbb 0a7c 27bb
00000060: d7b0 b63b 6e70 37bd 913e 773c b32e a7bc
00000070: d7a2 453c 163b 023d 056c 4a3c d296 fbbc
00000080: 4059 a4bc 7b63 34bd 0472 1c3c a427 04bc
00000090: 4a81 ce3c b841 993b d808 62bc c71c 1e3d
000000a0: b80d c4bc 00e8 94b9 095e 303d d8f2 1d3c
000000b0: 20a3 6c3c d427 4bbc 7cf7 29bd 8ca9 04bc
000000c0: eb92 a43c 78f3 013d c2ed d53c 026b 94bc
000000d0: 395d 10bc 707a 9dbc b3f5 293c e838 cdbc
000000e0: 2710 43bd 8705 42bd 510f 053c 43c3 b4bc
000000f0: d1ca d93c 782c 4abd 5d2d 4a3c c7ff 3bbd
00000100: 1c26 25ba a0b7 6c3c 315c 383b 4e15 c5bc
00000110: 9031 51bd 5568 8b3c 031e aabb 7dd4 933c
00000120: f6aa 56bd c4ae 4abd 1bd7 e33c 3c9c c03c
00000130: 5376 00bc 8d06 d6bc 0e73 8f3c 9de7 de38
00000140: 73e3 cc3c 648f e23c 5eba cc3c d1c7 9dbb
00000150: c81a 30bd 76b2 c13a 5e89 9f3c b903 b53c
00000160: c352 f13b 312b 3abd 9f10 9d3c feda e93c
00000170: 105a a93c 3e65 063d 1fbc 963b 9e65 d3bc
00000180: 7566 f63c 699f e2bc 82bc e03c 4f32 3ebd
00000190: 87db eb3c b790 21ba b859 7abc fa0e 003d
000001a0: 4ed2 153c 05f9 83bb 34da 08b7 dbf0 29bd
000001b0: a1e2 483c 4030 0b3a e230 7b3c 61e3 afbb
000001c0: df33 19bd cabf 70bc b4aa 233d 2f69 33bd
000001d0: 5845 973c f6b1 f63c 9264 853b f624 1fbd
000001e0: d6e9 98bc be68 10bc 6bb3 be3a 335d 3fbd
000001f0: ffe2 53bb 1902 d33b 84f3 d23c 872d fabc
00000200: 51f5 02bb ac09 9f3c 3f9e ff3c 13b6 14bd
00000210: e12a 74bc 0c4c 1fbd 800e e43c 21e2 2b3d
00000220: ab1d 98bc 6ad3 51bd c25c 4e3c 3cbe 313c
00000230: ff3b 0f3d d7ee 3dbd d966 0dbd ef01 f43c
00000240: c6f9 853b 7404 103d 14f6 903c da25 543a
00000250: dd21 d03b b91c bfbc 980d bb3c 3a68 b0bc
00000260: 9344 b23c 937f cc3c ec27 a33c 9a5a 2dbd
00000270: 97f4 853c d83c 443c ad90 03bb e0c8 d73c
00000280: dff2 f23c 82a3 16bd 606f dabb 7e69 03bd
00000290: df49 123d fb0c 42bd 696b 18bd 9358 09bd
000002a0: ad9c cebc 19f4 30bc a561 bcbb a6bd af3c
000002b0: 116b 95bc b1e0 3dbd 3a39 15bd 9c34 02bd
000002c0: ded0 80bc e329 f13c 6c36 d6bb 3105 38bd
000002d0: c833 2f3d 660e a43b 3d2f 13bd 44d2 39bd
000002e0: 0e21 f73c 3029 29bd 08c3 4cbc 2d8d 37bc
000002f0: a2a9 4abd 712c 83bc aa1f 23bd 34d4 9dbc
00000300: 50f7 afbc 75e3 c53c 2acd 01bd 6055 25bc
00000310: 0f07 0ebd 2e54 963a ec76 663c 8985 09bd
00000320: d945 843c 2785 33bc eaff 76bc dff7 a83b
00000330: db5d 313b ab10 01bd b373 48bd 2fd0 0ebd
00000340: d5a4 2238 58d0 95bc d53c a83c 7f76 90bb
00000350: c698 e6bc 5d3b ab3c bb94 233d d2bf 89bc
00000360: 93a6 10bb f642 8fbc 47fe 803c 7d13 16bb
00000370: af47 aabc 2881 59bd 2290 7ebb a933 7bbc
00000380: 8703 cabc 78db 25bd 9cec 38bd 4a42 ecbb
00000390: 9b74 76bb ab56 f13c 4ac2 1bbd c002 c33c
000003a0: 2437 e93c 9a73 e23b 209e 943b 9c7c a5bb
000003b0: 6013 1b3d 11c4 97ba 8864 1f3d d0df be3c
000003c0: b1a6 a73c 2a54 a2bc 456b fbbb 3e64 893b
000003d0: 95eb 1e3d bedb f53c fda3 26bd e947 063d
000003e0: 786b 21bd 6c8e 083d d2f2 67bc e54b 1c3d
000003f0: 3a1d 22bd 2aae 69bc cb52 4c36 5d59 ac3c

fc1.bias f4 [256]
-0.029024169 -0.022792513 -0.00032179678 0.02411669 -0.029809408 0.014790335 -0.038474165 -0.020890342
-0.039602913 0.039360084 0.009751994 -0.017921163 0.02893049 0.04641543 0.03542332 -0.017137807
-0.0051745153 -0.04400078 -0.024551708 0.010874659 -0.0129633825 -0.0090374155 -0.0039912853 0.0008043037
0.01592283 -0.015364838 0.021050483 -0.02487606 -0.03323526 0.011671191 0.0071867 -0.0024746468
-0.02624351 -0.034030117 0.043379035 0.039376277 0.03815409 0.023524802 0.006907195 0.025489112
-0.03561414 -0.037821397 -0.013187143 0.033370074 -0.019822083 -0.011508261 -0.019576373 0.041449267
0.032551214 -0.0023935393 0.025469938 0.03093321 -0.02104423 0.0056657046 0.03218138 0.010810717
0.045653403 0.027108457 0.035199802 0.03390256 -0.02416824 -0.017857544 0.0022490472 -0.025878517
-0.036221 -0.008111894 0.010735868 -0.019914286 -0.03190988 -0.026214758 -0.034997486 -0.029737266
0.031626698 0.010882811 -0.032831274 0.036402848 0.055334482 0.04016937 0.012733988 -0.04159583
0.012341313 0.04383797 0.026220419 0.041314285 -0.029937575 -0.03294668 0.007247118 0.017487008
0.030647013 -0.016159054 -0.03625932 -0.0023887807 -0.01805671 0.00012442842 0.0026964247 -0.021741273
-0.04048213 -0.019788114 -0.0037030391 0.038275357 -0.006171748 0.03593909 -0.012763936 0.009700397
0.04231731 0.017505508 -0.028050637 0.01148462 -0.012987724 0.049908143 0.015619846 0.013748298
-0.046510674 -0.013161984 -0.043823913 -0.030820346 0.0066976934 -0.0011606186 -0.026735265 0.01729473
-0.027456228 0.01837271 0.042238608 -0.024202276 0.03601578 0.02427591 0.029125936 -0.028482148
0.04688243 -0.0058007585 0.004396631 -0.004120609 -0.012162857 0.05305087 -0.0061621484 -0.012955903
-0.044928417 0.01994196 0.024537252 -0.037208516 0.012445478 0.01528016 -0.014919267 -0.036825128
0.03841454 -0.038181245 0.030879997 -0.009038598 0.025372114 -0.0049538626 -0.004015133 0.014351929
0.008017483 -0.0185179 -0.028445955 0.022539373 -0.03653853 0.023020286 -0.008746208 -0.016722064
0.011148381 0.022240661 0.044742253 0.026882738 -0.017195256 -0.014606873 0.024313947 0.016640624
0.030822398 -0.03728591 -0.0031613559 0.01964666 -0.008737767 0.022227708 -0.030013703 -0.033986315
-0.024732744 0.032229114 -0.037535235 -0.042331003 -0.047339488 -0.029471055 0.02637153 0.04158597
0.01652588 0.021330334 -0.021152576 -0.03497114 0.022284795 -0.04641984 -0.04099107 0.008291706
0.035019476 0.03804416 0.033567272 0.010495739 0.025655197 -0.0037022706 0.035225 -0.015947876
-0.00060584024 -0.025141459 -0.0069560106 -0.03407229 -0.013938947 -0.00058011647 0.02317123 -0.051273156
0.040788524 -0.032473464 0.030730145 0.014000383 -0.021198751 0.02928846 -0.0032480862 0.0360034
-0.016619364 -0.034137033 -0.047600653 0.0065769376 -0.013075039 0.034656778 0.007561827 -0.027287113
-0.021450458 -0.0310277 -0.021876916 -0.03657457 0.014458251 0.035899524 0.042484608 -0.0054534064
-0.007937671 -0.030354429 -0.04091575 -0.013351929 -0.021523846 -0.035410576 0.046852924 -0.045668483
-0.0101657845 0.022086307 0.026767258 -0.036452763 -0.0030244277 -0.013685174 0.022633268 0.0061899135
0.03268247 0.00042423382 -0.007955341 -0.018315434 -0.021791494 0.04267877 0.0044887895 0.00059326366
00000000: 18c4 edbc 5db7 babc d5b6 a8b9 5d90 c53c
00000010: dc32 f4bc 2953 723c 1697 1dbd 3922 abbc
00000020: aa36 22bd 0a38 213d d4c6 1f3c 67cf 92bc
00000030: a3ff ec3c 1b1e 3e3d 0b18 113d 9664 8cbc
00000040: fb8e a9bb 293a 34bd aa20 c9bc a02b 323c
00000050: 5e64 54bc ab11 14bc 54c9 82bb e8d7 523a
00000060: 9870 823c cdbc 7bbc 1072 ac3c e1c8 cbbc
00000070: b221 08bd 8638 3f3c 697e eb3b af2d 22bb
00000080: a1fc d6bc 2a63 0bbd 37ae 313d 0549 213d
00000090: 7747 1c3d 16b7 c03c c055 e23b 8bce d03c
000000a0: 22e0 11bd 9cea 1abd e30e 58bc 0faf 083d
000000b0: ec61 a2bc 258d 3cbc a15e a0bc b5c6 293d
000000c0: 6c54 053d eddc 1cbb 55a6 d03c a567 fd3c
000000d0: f364 acbc 60a7 b93b 9fd0 033d 6f1f 313c
000000e0: 10ff 3a3d 8e12 de3c ab2d 103d 69dd 0a3d
000000f0: 79fc c5bc fc49 92bc c064 133b 2fff d3bc
00000100: 795c 14bd c0e7 04bc 7ee5 2f3c 4923 a3bc
00000110: efb3 02bd 55c0 d6bc 8659 0fbd 919b f3bc
00000120: ff8a 013d d14d 323c 167a 06bd 271b 153d
00000130: 69a6 623d a388 243d 38a2 503c 6460 2abd
00000140: 3833 4a3c 718f 333d 34cc d63c 2b39 293d
00000150: a53f f5bc 19f3 06bd 3b79 ed3b ea40 8f3c
00000160: 720f fb3c fe5f 84bc a784 14bd 178d 1cbb
00000170: aaeb 93bc 0079 0239 80b6 303b c11a b2bc
00000180: 97d0 25bd af1a a2bc b0ae 72bb 9fc6 1c3d
00000190: 603c cabb de34 133d d41f 51bc 6aee 1e3c
000001a0: ea54 2d3d b667 8f3c 73ca e5bc fd29 3c3c
000001b0: 76ca 54bc 7b6c 4c3d 62ea 7f3c 8b40 613c
000001c0: fa81 3ebd 5da5 57bc b480 33bd f37a fcbc
000001d0: 5378 db3b e61f 98ba ea03 dbbc adad 8d3c
000001e0: e2eb e0bc 5e82 963c 6402 2d3d da43 c6bc
000001f0: 4885 133d 46de c63c 8499 ee3c 6553 e9bc
00000200: ca07 403d 4a14 bebb 9d11 903b 2c06 87bb
00000210: b846 47bc de4b 593d d9eb c9bb ff44 54bc
00000220: dc06 38bd 525d a33c 5902 c93c f567 18bd
00000230: 1ee8 4b3c a359 7a3c f16f 74bc f2d5 16bd
00000240: 9158 1d3d f063 1cbd 0cf8 fc3c a116 14bc
00000250: 2ed9 cf3c 0354 a2bb 6091 83bb 5a24 6b3c
00000260: c35b 033c dab2 97bc 7e07 e9bc 7ea4 b83c
00000270: 6da9 15bd 0a95 bc3c 414c 0fbc b6fc 88bc
00000280: b3a7 363c 0c32 b63c a743 373d 3039 dc3c
00000290: 11dd 8cbc aa51 6fbc 0b2e c73c eb51 883c
000002a0: 417f fc3c 1cb9 18bd c02e 4fbb 08f2 a03c
000002b0: da28 0fbc e216 b63c 4cdf f5bc 3c35 0bbd
000002c0: 539c cabc ad02 043d 8cbe 19bd 4663 2dbd
000002d0: 0de7 41bd 486d f1bc 1b09 d83c 0d56 2a3d
000002e0: 4861 873c f4bc ae3c 2b48 adbc e63d 0fbd
000002f0: 9a8e b63c bb22 3ebd 41e6 27bd f0d9 073c
00000300: 9570 0f3d 31d4 1b3d d67d 093d 52f6 2b3c
00000310: d92a d23c cba1 72bb 1748 103d 1fa5 82bc
00000320: 40d1 1eba 76f5 cdbc 3fef e3bb 638f 0bbd
00000330: 2e60 64bc f512 18ba 97d1 bd3c cd03 52bd
00000340: de11 273d e502 05bd c9bd fb3c dd61 653c
00000350: 01a9 adbc 5aee ef3c d8dd 54bb 4d78 133d
00000360: 5525 88bc 46d3 0bbd e7f8 42bd 5a83 d73b
00000370: b038 56bc 44f4 0d3d 34c9 f73b 3989 dfbc
00000380: dfb8 afbc ce2d febc 3837 b3bc 37cf 15bd
00000390: 4de2 6c3c 610b 133d 5704 2e3d 7db2 b2bb
000003a0: 010d 02bc daa9 f8bc 4697 27bd 0dc2 5abc
000003b0: c752 b0bc ae0a 11bd dae8 3f3d e00e 3bbd
000003c0: 648e 26bc 58ee b43c 0247 db3c 7e4f 15bd
000003d0: 7a35 46bb c837 60bc 6769 b93c c2d4 ca3b
000003e0: 0ede 053d b36b de39 1e57 02bc 400a 96bc
000003f0: 1384 b2bc efcf 2e3d b216 933b 4085 1b3a

fc2.weight f4 [31, 256]
-0.05353558 -0.07997571 0.084041335 -0.10933899 -0.05323252 -0.025639374 0.031224728 -0.017358333
0.023114989 0.062014736 -0.09220401 -0.009089627 0.057821367 -0.029334504 0.020923555 0.03296223
0.025728222 -0.054535385 0.061089396 0.075751446 0.06452959 0.029339572 0.037587643 0.05264734
0.033147547 0.061546106 0.048319515 -0.10629583 0.015032563 0.02014635 0.03954879 -0.038778853
-0.057030115 0.011017028 -0.02318813 0.002842307 0.052135855 0.060241878 0.028311066 0.021934083
0.0017507675 0.011238982 -0.06128479 -0.08318642 -0.01511857 -0.053142823 -0.049060196 -0.05697266
-0.12356086 -0.060762856 0.0053472705 0.08770646 -0.0069767446 -0.023371965 0.04341099 -0.03401031
0.03737279 0.03664738 -0.06903938 0.02205563 -0.055084124 -0.043844696 -0.08076188 0.039113495
0.008401967 0.04960484 0.017892873 0.015809925 -0.07954266 0.05159551 -0.0595128 -0.023955416
0.039000865 0.033081345 -0.056711733 -0.008632657 -0.03198331 0.042431306 0.047058403 0.030169941
0.052651934 0.037446443 0.090626456 -0.0804029 0.013539545 0.022006363 -0.07162281 -0.09398961
-0.11270452 0.07554133 -0.05797179 0.010853787 -0.10449183 -0.013586298 0.019436292 -0.05888439
0.045903534 0.02978802 0.018672265 0.038219675 0.025212646 -0.12422162 0.044962227 0.029791249
-0.06783531 0.06152884 0.05195901 -0.042541184 -0.02034106 -0.0040348438 -0.007900235 -0.0064321565
-0.047877524 0.06381054 0.024105338 0.03221174 -0.013620252 -0.06369551 -0.05868907 -0.02983731
-0.089519195 0.08207557 -0.036642928 -0.006282156 -0.06926276 0.026406985 0.008336896 -0.01574948
-0.10616981 0.024031837 -0.024735535 -0.0038470966 -0.053406708 0.04129019 -0.054252833 -0.033996664
0.017010603 0.0038385256 -0.028374499 0.05038639 0.030998377 -0.047590565 0.030348843 0.010711075
0.03232242 -0.016899455 0.0012216067 -0.019872768 -0.0387273 -0.10943839 -0.038388796 0.050605714
-0.0652527 -0.06782881 0.055576913 0.038088832 -0.054391913 0.055101737 0.050721 -0.030579468
0.060126297 -0.07008799 0.020154048 0.04369329 -0.065480836 0.028003858 0.047533873 -0.06845357
-0.07133249 -0.022355393 0.032282762 0.0015921618 0.04174794 -0.014967112 -0.110170215 -0.080984205
-0.024888048 0.041457362 -0.093230605 -0.03584368 -0.024432689 0.08777507 0.028384047 0.07172597
-0.018837838 0.02786793 0.0019153167 0.058415547 -0.044239108 0.036457006 0.041268792 -0.01442495
-0.030513145 -0.0061125983 -0.048548512 -0.03701739 0.034202203 -0.02635526 -0.0028847586 0.008266939
0.053876005 -0.028892143 0.050048158 -0.02335241 0.042355433 0.03252133 -0.036001835 0.045114603
0.008678002 -0.0012518556 0.06721729 -0.059847604 -0.06820079 -0.082951725 -0.024304712 0.017728632
-0.047825843 0.045862816 0.05516151 -0.06321096 -0.048880644 -0.013790685 0.08350069 -0.045853876
0.06546832 -0.016089754 -0.008064613 0.016594103 0.07312691 -0.10593314 -0.0002497238 -0.060780134
-0.01830752 -0.007903782 -0.10887973 -0.03655244 -0.004112791 0.021429827 0.054117795 -0.055294875
-0.019932926 0.022614637 0.04227059 0.047332123 -0.010207115 0.013414872 -0.0190719 0.008164724
0.049261842 0.046036202 0.021263024 0.0036400259 0.03293844 0.029884234 -0.04890167 -0.058162816
00000000: 2048 5bbd 4eca a3bd dd1d ac3d 1fed dfbd
00000010: 580a 5abd aa09 d2bc 00cb ff3c 1033 8ebc
00000020: a55b bd3c 2a03 7e3d 75d5 bcbd a9ec 14bc
00000030: 19d6 6c3d ea4e f0bc e067 ab3c 6703 073d
00000040: fec3 d23c 7f60 5fbd e038 7a3d 9323 9b3d
00000050: 1728 843d 8b59 f03c 80f5 193d bda4 573d
00000060: b9c5 073d c517 7c3d afea 453d a1b1 d9bd
00000070: 244b 763c f509 a53c e9fd 213d 93d6 1ebd
00000080: 6998 69bd c480 343c 09f5 bdbc 0046 3a3b
00000090: 688c 553d 30c0 763d 9cec e73c 1baf b33c
000000a0: 027a e53a b523 383c c305 7bbd a45d aabd
000000b0: e1b3 77bc 4aac 59bd 58f3 48bd 2a5c 69bd
000000c0: 7a0d fdbd 79e2 78bd 2838 af3b 729f b33d
000000d0: 2d9d e4bb 9076 bfbc b9cf 313d 654e 0bbd
000000e0: 3614 193d 901b 163d 8564 8dbd 02ae b43c
000000f0: e49f 61bd 7f96 33bd 7c66 a5bd 7935 203d
00000100: 67a8 093c 722e 4b3d 1394 923c d183 813c
00000110: 43e7 a2bd d055 533d b2c3 73bd 263e c4bc
00000120: 5fbf 1f3d 4e80 073d 904a 68bd fd6f 0dbc
00000130: ee00 03bd 73cc 2d3d 50c0 403d f426 f73c
00000140: 8ea9 573d 7161 193d 5d9a b93d 47aa a4bd
00000150: f8d4 5d3c b046 b43c fbae 92bd a07d c0bd
00000160: a1d1 e6bd 6ab5 9a3d d473 6dbd 15d4 313c
00000170: d0ff d5bd 1099 5ebc dc38 9f3c c230 71bd
00000180: 5805 3c3d 0106 f43c 94f6 983c 3c8c 1c3d
00000190: c08a ce3c e867 febd 502a 383d c70c f43c
000001a0: 3ded 8abd aa05 7c3d f9d2 543d aa3f 2ebd
000001b0: 4ba2 a6bc b936 84bb fd6f 01bc d7c4 d2bb
000001c0: 391b 44bd 1aaf 823d 8f78 c53c 75f0 033d
000001d0: 7a27 5fbc cb72 82bd f363 70bd 606d f4bc
000001e0: d755 b7bd 3d17 a83d e516 16bd 8bda cdbb
000001f0: a2d9 8dbd 7653 d83c 7a97 083c 0e05 81bc
00000200: 8f6f d9bd 6ade c43c 2da2 cabc 921f 7cbb
00000210: fec0 5abd e71f 293d 3838 5ebd 1640 0bbd
00000220: d259 8b3c c68f 7b3b a371 e8bc f661 4e3d
00000230: 4ff0 fd3c 53ee 42bd 239e f83c 817d 2f3c
00000240: 8464 043d ba70 8abc 521e a03a 37cc a2bc
00000250: 84a0 1ebd 3c21 e0bd 923d 1dbd f047 4f3d
00000260: 35a3 85bd d5e9 8abd 9ea4 633d 0903 1c3d
00000270: 0eca 5ebd 5cb2 613d d3c0 4f3d cb81 fabc
00000280: fe46 763d 4b8a 8fbd 1a1a a53c bcf7 323d
00000290: d11a 86bd 5968 e53c e1b2 423d 6331 8cbd
000002a0: c516 92bd a822 b7bc ee3a 043d 16b0 d03a
000002b0: e3ff 2a3d 9e38 75bc eca0 e1bd 0cdb a5bd
000002c0: 05e2 cbbc 32cf 293d b0ef bebd d3d0 12bd
000002d0: 1027 c8bc 6ac3 b33d a985 e83c 11e5 923d
000002e0: cf51 9abc 494b e43c 5d0b fb3a 2445 6f3d
000002f0: 1134 35bd f153 153d 7709 293d a056 6cbc
00000300: b4f6 f9bc 314c c8bb ceda 46bd 8c9f 17bd
00000310: 9c17 0c3d fce6 d7bc 380e 3dbb 0e72 073c
00000320: 16ad 5c3d 37af ecbc 4cff 4c3d 8e4d bfbc
00000330: e47c 2d3d 1635 053d a976 13bd 17ca 383d
00000340: 2e2e 0e3c 4e15 a4ba 38a9 893d c322 75bd
00000350: dbac 8bbd 98e2 a9bd ad1a c7bc a33b 913c
00000360: 08e5 43bd a6da 3b3d 09f1 613d bf74 81bd
00000370: 1237 48bd 53f2 61bc 6902 ab3d 46d1 3bbd
00000380: 4114 863d a9ce 83bc 7021 04bc 5bf0 873c
00000390: 90c3 953d 79f3 d8bd 5ced 82b9 97f4 78bd
000003a0: a7f9 95bc dd7e 01bc 56fc debd 03b8 15bd
000003b0: 97c4 86bb 9b8d af3c 9faa 5d3d e17c 62bd
000003c0: 604a a3bc 5542 b93c ed23 2d3d 54df 413d
000003d0: be3b 27bc 0dca 5b3c ac3c 9cbc 56c5 053c
000003e0: c9c6 493d 7590 3c3d cb2f ae3c 808d 6e3b
000003f0: 75ea 063d c8cf f43c 1e4d 48bd 223c 6ebd

fc2.bias f4 [31]
0.03566681 0.04545831 -0.029177044 -0.025474926 -0.056422822 0.006480754 -0.055320315 -0.0004975202
-0.029808765 0.05228923 -0.06130607 -0.057867825 -0.03134208 -0.04993368 -0.04029847 -0.060665645
-0.01746221 -0.024803331 0.0123123005 0.003923296 -0.03142379 -0.0107402215 0.05442516 0.0015621324
-0.023375796 0.00013068615 -0.038888857 -0.042708445 -0.026709605 -0.003336715 -0.00083964417
00000000: 5c17 123d 7e32 3a3d b204 efbc cbb0 d0bc
00000010: 9e1b 67bd 815c d43b 8e97 62bd 046c 02ba
00000020: 8331 f4bc 3b2d 563d 131c 7bbd d006 6dbd
00000030: 8e60 00bd 4287 4cbd 0210 25bd 8a7c 78bd
00000040: e90c 8fbc 5b30 cbbc 88b9 493c fe8e 803b
00000050: 3bb6 00bd c1f7 2fbc ebec 5e3d 77c0 cc3a
00000060: 997e bfbc cc08 0939 ec49 1fbd 0def 2ebd
00000070: 1ace dabc caac 5abb 911b 5cba
